Using TensorFlow backend.
__________________________________________________________________________________________________
Layer (type)                    Output Shape         Param #     Connected to
==================================================================================================
input_1 (InputLayer)            (None, 501, 540)     0
__________________________________________________________________________________________________
conv1d_1 (Conv1D)               (None, 501, 128)     553088      input_1[0][0]
__________________________________________________________________________________________________
batch_normalization_1 (BatchNor (None, 501, 128)     512         conv1d_1[0][0]
__________________________________________________________________________________________________
activation_1 (Activation)       (None, 501, 128)     0           batch_normalization_1[0][0]
__________________________________________________________________________________________________
global_average_pooling1d_1 (Glo (None, 128)          0           activation_1[0][0]
__________________________________________________________________________________________________
reshape_1 (Reshape)             (None, 1, 128)       0           global_average_pooling1d_1[0][0]
__________________________________________________________________________________________________
dense_1 (Dense)                 (None, 1, 8)         1024        reshape_1[0][0]
__________________________________________________________________________________________________
dense_2 (Dense)                 (None, 1, 128)       1024        dense_1[0][0]
__________________________________________________________________________________________________
multiply_1 (Multiply)           (None, 501, 128)     0           activation_1[0][0]
                                                                 dense_2[0][0]
__________________________________________________________________________________________________
conv1d_2 (Conv1D)               (None, 501, 256)     164096      multiply_1[0][0]
__________________________________________________________________________________________________
batch_normalization_2 (BatchNor (None, 501, 256)     1024        conv1d_2[0][0]
__________________________________________________________________________________________________
activation_2 (Activation)       (None, 501, 256)     0           batch_normalization_2[0][0]
__________________________________________________________________________________________________
global_average_pooling1d_2 (Glo (None, 256)          0           activation_2[0][0]
__________________________________________________________________________________________________
reshape_2 (Reshape)             (None, 1, 256)       0           global_average_pooling1d_2[0][0]
__________________________________________________________________________________________________
dense_3 (Dense)                 (None, 1, 16)        4096        reshape_2[0][0]
__________________________________________________________________________________________________
dense_4 (Dense)                 (None, 1, 256)       4096        dense_3[0][0]
__________________________________________________________________________________________________
multiply_2 (Multiply)           (None, 501, 256)     0           activation_2[0][0]
                                                                 dense_4[0][0]
__________________________________________________________________________________________________
conv1d_3 (Conv1D)               (None, 501, 128)     98432       multiply_2[0][0]
__________________________________________________________________________________________________
batch_normalization_3 (BatchNor (None, 501, 128)     512         conv1d_3[0][0]
__________________________________________________________________________________________________
activation_3 (Activation)       (None, 501, 128)     0           batch_normalization_3[0][0]
__________________________________________________________________________________________________
global_average_pooling1d_3 (Glo (None, 128)          0           activation_3[0][0]
__________________________________________________________________________________________________
masking_1 (Masking)             (None, 501, 540)     0           input_1[0][0]
__________________________________________________________________________________________________
lstm_1 (LSTM)                   (None, 8)            17568       masking_1[0][0]
__________________________________________________________________________________________________
dropout_1 (Dropout)             (None, 8)            0           lstm_1[0][0]
__________________________________________________________________________________________________
concatenate_1 (Concatenate)     (None, 136)          0           dropout_1[0][0]
                                                                 global_average_pooling1d_3[0][0]
__________________________________________________________________________________________________
dense_5 (Dense)                 (None, 4)            548         concatenate_1[0][0]
==================================================================================================
Total params: 846,020
Trainable params: 844,996
Non-trainable params: 1,024
__________________________________________________________________________________________________